Machine.Learning/models/pytorch_computer_vision_model_1.pth (torch, 35272 bytes, 10 tensors)

conv_block_1.0.weight f4 [10, 1, 3, 3]
0.041628543 -0.20370126 0.20410062 -0.10493176 -0.17690687 0.18543476 0.25611517 -0.26615265
-0.2085446 0.28289437 -1.1670591 -1.2535019 0.8243984 -0.07750914 -0.29193264 0.38060486
0.29069382 -0.4364505 0.06441193 -0.31341982 0.11243039 -0.13342375 0.2981071 -0.19086246
-0.0548381 -0.19249782 0.09768102 0.8994267 0.47000778 0.0952849 -0.464473 -0.89069384
0.28281945 -0.8302885 -0.5168061 0.3965185 -0.54770875 -0.15470655 -0.34739387 -0.04955098
0.21580218 0.29118934 -0.38322866 0.41305414 0.49718916 -0.4623708 0.091855556 -0.065803654
-0.25035977 -0.49079052 -0.40744558 0.14690833 0.19026904 0.4602311 -0.15008928 0.5709538
-0.577938 0.9887823 0.5101791 -0.82531667 -0.19895995 -0.1241397 -0.098604344 -0.5016788
0.57049006 -0.23740953 -1.4041059 0.82209194 0.379407 -0.18178028 -0.16305646 0.34909776
-0.14931846 0.19040202 0.14024286 -0.24166146 -0.02910738 -0.32133794 -0.0085187685 0.21043494
-0.0129018985 -1.4062885 -0.4363329 0.34950775 -1.389737 -1.3651732 -1.1796798 -0.71853006
-1.1584163 0.5692637
00000000: b182 2a3d 1097 50be c1ff 503e 76e6 d6bd
00000010: 1327 35be 9ce2 3d3e 8721 833e 2945 88be
00000020: b78c 55be 88d7 903e 3162 95bf c072 a0bf
00000030: c60b 533f 1dbd 9ebd 3278 95be a4de c23e
00000040: d2d5 943e 7176 dfbe 67ea 833d 9078 a0be
00000050: e841 e63d 3ca0 08be 7ea1 983e 7371 43be
00000060: ea9d 60bd 261e 45be fd0c c83d d440 663f
00000070: dca4 f03e bb24 c33d 68cf edbe 8304 64bf
00000080: b6cd 903e ca8d 54bf 684d 04bf 7904 cb3e
00000090: a436 0cbf 656b 1ebe 9cdd b1be f8f5 4abd
000000a0: 3ffb 5c3e c516 953e 8c36 c4be d57b d33e
000000b0: 948f fe3e debb ecbe c41e bc3d 11c4 86bd
000000c0: 282f 80be e548 fbbe b59c d0be 236f 163e
000000d0: e3d5 423e 69a3 eb3e 01b1 19be 072a 123f
000000e0: bff3 13bf d620 7d3f 199b 023f f447 53bf
000000f0: 28bc 4bbe f43c febd 13f1 c9bd 066e 00bf
00000100: a30b 123f 7c1b 73be beb9 b3bf 9e74 523f
00000110: a241 c23e 9c24 3abe 46f8 26be f1bc b23e
00000120: f0e6 18be bff8 423e d39b 0f3e 1a76 77be
00000130: 9a72 eebc 6886 a4be 4e92 0bbc 427c 573e
00000140: 7c62 53bc 4301 b4bf 0767 dfbe aef2 b23e
00000150: e7e2 b1bf ffbd aebf bfff 96bf 96f1 37bf
00000160: fc46 94bf 44bb 113f

conv_block_1.0.bias f4 [10]
-0.3030879 -0.10521232 -0.13327172 0.20522678 -0.15977062 0.044525914 0.12323619 0.050353616
-0.3219133 0.5539591
00000000: 562e 9bbe 8f79 d7bd 6278 08be f826 523e
00000010: e99a 23be ce60 363d 4163 fc3d 983f 4e3d
00000020: d2d1 a4be 43d0 0d3f

conv_block_1.2.weight f4 [10, 10, 3, 3]
0.10129142 -0.059440076 0.023523163 -0.09919826 -0.0325788 -0.053165045 0.066716895 0.039944682
-0.05523289 -0.19841477 -0.056826126 0.004359814 -0.1898831 -0.031397022 -0.09953218 0.057398766
0.08869493 -0.13402168 -0.0045558405 -0.106560215 -0.037565753 0.10387858 -0.0014236744 0.07319581
-0.047289304 0.022556575 0.06978878 -0.082792625 -0.026375541 0.19979835 0.09385245 0.0407055
-0.19025095 -0.14024796 -0.16811156 -0.096382536 0.0095851645 -0.09337075 -0.03407335 -0.031056073
-0.01555314 -0.09392281 0.07275246 -0.10242655 -0.120333314 -0.061060943 0.073636934 -0.038040426
-0.07848734 0.050791785 0.092860706 0.08313082 0.2249304 0.02639456 0.21265776 0.2609454
0.17327526 0.13392243 -0.09256103 -0.1803276 -0.19625838 -0.25184935 -0.24444287 -0.09740908
-0.003999674 -0.22381453 -0.20063949 -0.18275592 -0.045473933 0.0233536 -0.030618755 0.1729588
-0.074490756 0.036850765 0.044345375 -0.023641514 0.010110764 -0.016581653 0.09526137 0.06055253
-0.018200891 0.06278845 0.030248253 0.22588988 -0.06790661 0.047092322 0.08515313 -0.03167774
-0.12166584 0.17443031 0.0685062 0.08710324 0.031737093 0.09907146 0.04180996 -0.06613994
0.09513424 -0.05997762 -0.06730353 -0.04143575 -0.43634382 -0.07586571 0.3673124 -0.10543761
-0.2983274 0.006517102 0.09060829 0.13722484 -0.07273959 -0.0056817834 -0.07116295 0.10195641
0.04247772 0.01342811 -0.06971405 -0.04883227 -0.0032522255 -0.36532176 -0.071994364 -0.054201547
-0.14055656 -0.18162057 0.22515927 -0.23075287 -0.3766075 0.40057197 0.02819064 -0.05184513
-0.13073151 -0.08575846 -0.095787235 0.013956638 0.113975026 -0.038719166 -0.18361638 0.0024759779
0.09443814 0.217512 -0.08597434 -0.111861095 -0.07562424 0.044174977 -0.0003219153 0.029363137
0.24397977 -0.37593615 0.07825038 0.61024195 -0.4208708 -0.2036177 0.057716485 0.10834894
-0.22438675 -0.23625998 -0.21649875 0.29099643 -0.10870551 -0.5598927 0.8021611 0.19197546
-0.45251969 0.015150088 -0.09970615 -0.07818255 -0.08592023 -0.10458319 -0.03002982 0.037641644
-0.10141159 -0.021850524 -0.067245856 -0.24475884 -0.21008061 0.34040532 -0.28355694 0.307808
0.15763035 -0.19701362 0.25297982 -0.07155309 0.043965288 0.016272724 -0.04378742 -0.09359402
0.00025162162 0.016804213 0.03185496 0.093140684 0.061072852 0.009416089 -0.10127428 -0.18285158
-0.16052385 0.0065861763 -0.1094998 0.08289858 0.037561044 -0.24065287 -0.0056329127 0.017414577
-0.017901191 -0.0048667216 0.028716406 -0.052145906 0.049763683 0.014245507 -0.082920365 0.23065698
0.18779933 -0.2341714 -0.13596882 0.10381089 -0.17901094 -0.16996223 -0.065820344 -0.30824214
0.11329174 0.13022828 0.09356962 0.10589927 0.07640633 0.08437958 -0.018437665 0.17207924
-0.03993325 -0.044398554 -0.1372722 -0.20631054 0.24346524 0.07967008 0.0045810854 0.10207045
-0.047949597 -0.09007857 -0.036767114 -0.021741543 -0.15085356 -0.15458106 -0.20681226 0.19127575
-0.015655983 -0.061681572 -0.10774775 -0.02177863 -0.014405525 0.4988312 -0.061057184 0.036161114
0.3689875 -0.11383283 0.00793425 -0.1101755 0.0042002564 0.026294563 0.049801603 0.09393415
00000000: e071 cf3d 7077 73bd a6b3 c03c 7528 cbbd
00000010: 5971 05bd 97c3 59bd dea2 883d 099d 233d
00000020: e23b 62bd 3e2d 4bbe 83c2 68bd c5dc 8e3b
00000030: b770 42be 2a9a 00bd 87d7 cbbd f81a 6b3d
00000040: b0a5 b53d fb3c 09be 2949 95bb 3e3c dabd
00000050: 8cde 19bd 4bbe d43d 969a baba afe7 953d
00000060: 6eb2 41bd 91c8 b83c 6bed 8e3d 2e8f a9bd
00000070: 8511 d8bc f097 4c3e b735 c03d cfba 263d
00000080: 25d1 42be 299d 0fbe 7025 2cbe 3564 c5bd
00000090: 180b 1d3c 2a39 bfbd 7f90 0bbd 4e69 febc
000000a0: 99d2 7ebc 9a5a c0bd 3eff 943d 03c5 d1bd
000000b0: 5071 f6bd 0a1b 7abd f6ce 963d 47d0 1bbd
000000c0: f8bd a0bd 0c0b 503d c12d be3d 7e40 aa3d
000000d0: 2854 663e 6739 d83c f5c2 593e a39a 853e
000000e0: 126f 313e f622 093e a390 bdbd cca7 38be
000000f0: f5f7 48be 66f2 80be 3b4f 7abe 697e c7bd
00000100: b30f 83bb a32f 65be 7074 4dbe 5e24 3bbe
00000110: e042 3abd 0d50 bf3c 2fd4 fabc 1d1c 313e
00000120: 9c8e 98bd d4f0 163d 7fa3 353d d9ab c1bc
00000130: 9ea7 253c 3fd6 87bc 6518 c33d ee05 783d
00000140: 091a 95bc 3b97 803d 2fcb f73c ad4f 673e
00000150: 9f12 8bbd e1e3 403d c464 ae3d 85c0 01bd
00000160: f12b f9bd dc9d 323e fb4c 8c3d 2f63 b23d
00000170: c1fe 013d fae5 ca3d ec40 2b3d 6074 87bd
00000180: bed5 c23d 18ab 75bd 6fd6 89bd 88b8 29bd
00000190: 7568 dfbe 7b5f 9bbd 5f10 bc3e acef d7bd
000001a0: 5ebe 98be 6a8d d53b d790 b93d ab84 0c3e
000001b0: 7ff8 94bd 412e babb e1bd 91bd 86ce d03d
000001c0: 1efd 2d3d 9301 5c3c 3dc6 8ebd 5904 48bd
000001d0: 4a23 55bb 740b bbbe c871 93bd 7102 5ebd
000001e0: 0fee 0fbe befa 39be 2790 663e 7b4a 6cbe
000001f0: b3d2 c0be c517 cd3e 0ff0 e63c 8f5b 54bd
00000200: 7bde 05be 22a2 afbd 192c c4bd 62aa 643c
00000210: bd6b e93d fd97 1ebd ef05 3cbe 0444 223b
00000220: c968 c13d 77bb 5e3e 5113 b0bd 6e17 e5bd
00000230: e2e0 9abd d2f0 343d bdc6 a8b9 f68a f03c
00000240: d5d5 793e b47a c0be bc41 a03d d138 1c3f
00000250: 617c d7be 2981 50be 1f68 6c3d 0de6 dd3d
00000260: a4c5 65be 23ee 71be d9b1 5dbe 7cfd 943e
00000270: ffa0 debd 2155 0fbf 6e5a 4d3f 3795 443e
00000280: a9b0 e7be 1338 783c bd32 ccbd 2c1e a0bd
00000290: f2f6 afbd b62f d6bd 1901 f6bc 202e 1a3d
000002a0: e1b0 cfbd dfff b2bc 32b8 89bd 10a2 7abe
000002b0: 5f1f 57be 9b49 ae3e 602e 91be 0399 9d3e
000002c0: da69 213e f0bd 49be 9286 813e 6d8a 92bd
000002d0: f214 343d 604e 853c 705a 33bd 39ae bfbd
000002e0: 15ec 8339 fda8 893c 597a 023d 8bc0 be3d
000002f0: 8727 7a3d f145 1a3c e468 cfbd 723d 3bbe
00000300: 5d60 24be dad0 d73b 6e41 e0bd bbc6 a93d
00000310: 9cd9 193d b56d 76be 4c94 b8bb 04a9 8e3c
00000320: 85a5 92bc 0579 9fbb ab3e eb3c f296 55bd
00000330: 01d5 4b3d fd65 693c 27d2 a9bd 5831 6c3e
00000340: 784e 403e a1ca 6fbe 693b 0bbe ce9a d43d
00000350: a54e 37be 940a 2ebe d1cc 86bd ead1 9dbe
00000360: 8005 e83d 905a 053e 6ea1 bf3d b7e1 d83d
00000370: ec7a 9c3d 34cf ac3d 960a 97bc 8a35 303e
00000380: 0c91 23bd 42db 35bd 1591 0cbe 1243 53be
00000390: f44e 793e 112a a33d ee1c 963b 500a d13d
000003a0: cc66 44bd 1d7b b8bd 1d99 16bd 521b b2bc
000003b0: 5b79 1abe 7f4a 1ebe 98c6 53be cadd 433e
000003c0: fa40 80bc d1a5 7cbd daaa dcbd 1969 b2bc
000003d0: 2705 6cbc ce66 ff3e 1917 7abd ad1d 143d
000003e0: eeeb bc3e 3021 e9bd a8fe 013c b1a3 e1bd
000003f0: 4ea2 893b b267 d73c c4fc 4b3d 8c60 c03d

conv_block_1.2.bias f4 [10]
-0.03395272 -0.008204553 -0.07422578 0.34207073 0.23491922 -0.05243131 -0.24944459 0.037274692
0.39031687 0.11351265
00000000: 0212 0bbd 646c 06bc b003 98bd e523 af3e
00000010: aa8e 703e 37c2 56bd 676e 7fbe 59ad 183d
00000020: 9dd7 c73e 5279 e83d

conv_block_2.0.weight f4 [10, 10, 3, 3]
0.036658492 -0.011702259 -0.07641061 -0.019799678 0.11392888 -0.01816534 0.13537778 0.04173668
-0.1043206 -0.3919955 -0.33568215 0.08681269 -0.5342051 -0.8079821 0.04817052 -0.22907142
0.22647452 0.10243124 0.20128718 0.0018799655 -0.18365337 0.014380595 -0.14629756 -0.26735118
-0.1322042 -0.09662338 -0.1321918 0.004835872 -0.20418076 -0.41273716 0.46442738 0.6269571
0.064301066 -0.17787243 -0.35932225 -0.56449044 -0.2868545 -0.26052108 -0.0968471 0.08539669
0.34766114 0.14653212 -0.13855562 -0.07638054 -0.3340254 0.09364621 -0.20681588 0.00046058482
-0.13840081 -0.313674 -0.068946645 -0.045799997 0.2556661 0.19353184 -0.30088857 0.19477585
0.26519638 -0.4201637 -0.056012895 0.11963284 0.14918524 -0.20593095 0.2498876 0.01806975
-0.45110425 0.022130636 -0.30791456 -0.47285867 0.063581474 0.1256212 0.10151261 0.09125479
-0.061111767 0.076473236 -0.055506762 0.33994484 0.46184075 0.004420441 -0.23115674 0.11077055
-0.44448116 0.3136076 -0.27089912 -0.30391335 -0.033207845 -0.11476772 -0.14032401 -0.22014269
0.117568985 0.05302545 0.14495555 0.02410205 0.0643046 0.014173317 0.27514017 0.14636666
-0.009976038 0.026525974 -0.09436733 0.1375759 0.34705427 -0.085436635 -0.77387637 -0.44207782
-0.061538927 -0.7080492 -0.14305103 0.37067086 -0.0127962325 0.32362056 0.09287675 -0.27473035
0.030981591 0.13102493 -0.31475696 0.06366369 -0.21737687 0.23375772 0.047923356 0.24108565
0.30215147 0.16080622 -0.09726707 0.12043312 -0.292454 -0.6685045 0.1316188 0.071454555
0.1457994 -0.24386816 0.29457578 -0.1641684 -0.25193498 0.010990863 -0.51612794 -0.10213161
-0.14025332 -0.066250645 -0.34239674 -0.21849374 0.017389497 0.025151715 -0.13292044 0.20093733
-0.11889939 0.17251474 -0.13752195 0.18543877 -0.07821555 -0.31958953 0.12594056 0.0019227037
-0.19985956 0.09804356 0.011030287 -0.23257351 -0.37405056 -0.29726002 0.23436236 -0.044377577
-0.32841718 0.2882812 0.17842886 0.18515497 -0.0693684 0.43310952 0.19869432 -0.5113046
0.29174638 -0.23421611 -0.12614454 -0.031343058 0.22568901 0.29908076 -0.50711966 -0.5601019
-0.10513029 -0.1029178 -0.5227265 -0.04366761 -0.237058 -0.096792564 -0.011323827 -0.10733863
-0.03886385 0.017379835 -0.109838076 -0.17993665 0.16878258 -0.22336502 0.118449606 0.119073845
0.24016 0.21534917 0.38676575 0.25724688 0.20903206 -0.011107049 0.02095527 -0.013180946
0.052278403 0.07789501 -0.0800731 0.20897467 -0.02957724 -0.08202826 0.3310689 -0.096932836
0.016077891 -0.042580385 -0.07715611 -0.035549995 -0.321865 -0.22225946 -0.05950905 -0.14743605
0.013582202 0.11195795 -0.3878374 0.31715366 -0.17503914 -0.14890176 0.013869901 0.043599613
-0.18382213 0.19909781 -0.30047175 -0.030920185 0.043228064 -0.025313796 0.32520843 0.02185366
0.18472564 -0.04109694 0.05457976 0.01156928 -0.03125601 -0.05411164 0.009953499 0.08792512
-0.26690435 0.1249944 0.025248444 0.020952191 -0.47673917 0.100273795 -0.14862907 -0.06932968
0.19750941 0.124066725 0.44082618 0.1710929 0.0511162 0.13862452 -0.07797009 -0.0011229939
00000000: 3727 163d d5ba 3fbc 2a7d 9cbd ef32 a2bc
00000010: 8b53 e93d 7bcf 94bc 79a0 0a3e 15f4 2a3d
00000020: 0aa6 d5bd a2b3 c8be 88de abbe daca b13d
00000030: aac1 08bf ead7 4ebf 744e 453d b391 6abe
00000040: f0e8 673e 78c7 d13d 3a1e 4e3e 2d69 f63a
00000050: a10f 3cbe 969c 6b3c 07cf 15be 41e2 88be
00000060: 8a60 07be 7be2 c5bd 4a5d 07be 3c76 9e3b
00000070: c314 51be 4952 d3be 6dc9 ed3e 4380 203f
00000080: 47b0 833d 3124 36be 16f9 b7be 7282 10bf
00000090: 98de 92be 0563 85be c657 c6bd 76e4 ae3d
000000a0: a400 b23e 840c 163e 86e1 0dbe 676d 9cbd
000000b0: 6105 abbe 96c9 bf3d 8bc7 53be a67a f139
000000c0: f1b8 0dbe e199 a0be e633 8dbd c798 3bbd
000000d0: abe6 823e 362d 463e 110e 9abe 5273 473e
000000e0: d2c7 873e b21f d7be c76d 65bd 1002 f53d
000000f0: 04c4 183e 90df 52be 89e2 7f3e 0307 943c
00000100: 23f7 e6be 4f4b b53c faa6 9dbe 881a f2be
00000110: 0137 823d d8a2 003e d8e5 cf3d cbe3 ba3d
00000120: 5550 7abd 009e 9c3d 0f5b 63bd 400d ae3e
00000130: 6476 ec3e 59d9 903b 5ab4 6cbe acdb e23d
00000140: 0993 e3be 2d91 a03e 4ab3 8abe 889a 9bbe
00000150: f304 08bd 570b ebbd 19b1 0fbe 166d 61be
00000160: 02c8 f03d 3731 593d 3a6f 143e aa71 c53c
00000170: 21b2 833d 3337 683c 2cdf 8c3e 24e1 153e
00000180: 8972 23bc 004d d93c a943 c1bd b2e0 0c3e
00000190: 19b1 b13e 67f9 aebd c31c 46bf 0658 e2be
000001a0: 3e10 7cbd b642 35bf f87b 12be 92c8 bd3e
000001b0: 4aa7 51bc 98b1 a53e 2a36 be3d 75a9 8cbe
000001c0: 1bcd fd3c 662b 063e d327 a1be 1c62 823d
000001d0: 0b98 5ebe 2f5e 6f3e 484b 443d 28df 763e
000001e0: 99b3 9a3e 63aa 243e f533 c7bd a4a5 f63d
000001f0: 88bc 95be 1c23 2bbf 14c7 063e c456 923d
00000200: 704c 153e 93b8 79be a3d2 963e c31b 28be
00000210: 9ffd 80be 0513 343c f620 04bf 612a d1bd
00000220: 919e 0fbe 6bae 87bd a04e afbe d3bc 5fbe
00000230: 6b74 8e3c f80a ce3c 4c1c 08be 84c2 4d3e
00000240: 8681 f3bd b4a7 303e 8ed2 0cbe a9e3 3d3e
00000250: 792f a0bd 3da1 a3be 90f6 003e 3b03 fc3a
00000260: fca7 4cbe 10cb c83d 60b8 343c c027 6ebe
00000270: 8e83 bfbe 7732 98be b0fc 6f3e 43c5 35bd
00000280: 4c26 a8be 9899 933e 0eb6 363e 4499 3d3e
00000290: 0511 8ebd 88c0 dd3e 8676 4b3e dce4 02bf
000002a0: c85f 953e 59d6 6fbe 092c 01be 9461 00bd
000002b0: 051b 673e 1d21 993e 98d2 01bf d762 0fbf
000002c0: 8d4e d7bd 91c6 d2bd 67d1 05bf cfdc 32bd
000002d0: 55bf 72be 2e3b c6bd 9387 39bc 5bd4 dbbd
000002e0: b32f 1fbd 2860 8e3c c9f2 e0bd 5041 38be
000002f0: 57d5 2c3e cdb9 64be b595 f23d fddc f33d
00000300: 81ec 753e 7e84 5c3e 2906 c63e ddb5 833e
00000310: 800c 563e 57fa 35bc 63aa ab3c e5f4 57bc
00000320: e121 563d 6b87 9f3d 5efd a3bd 75fd 553e
00000330: f84b f2bc 6ffe a7bd dd81 a93e b984 c6bd
00000340: c8b5 833c c568 2ebd 0604 9ebd df9c 11bd
00000350: 7dcb a4be fc97 63be c3bf 73bd 7af9 16be
00000360: e287 5e3c 364a e53d a092 c6be f761 a23e
00000370: 763d 33be b479 18be 953e 633c 8295 323d
00000380: de3b 3cbe 4ce0 4b3e 6fd7 99be 544c fdbc
00000390: e90f 313d e15e cfbc b881 a63e 7206 b33c
000003a0: b828 3d3e 4455 28bd 078f 5f3d 148d 3d3c
000003b0: 4d06 00bd 2ba4 5dbd 0014 233c 1612 b43d
000003c0: b0a7 88be 10fd ff3d d3d5 ce3c eea3 ab3c
000003d0: 2817 f4be 595c cd3d 3832 18be b8fc 8dbd
000003e0: e83f 4a3e b216 fe3d f8b3 e13e fa32 2f3e
000003f0: 385f 513d 96f3 0d3e c8ae 9fbd 6c31 93ba

conv_block_2.0.bias f4 [10]
0.68131334 0.42157996 -0.28698176 0.25381613 0.6134249 -0.1536259 0.35703942 0.6746602
0.49815243 0.13379803
00000000: 8d6a 2e3f 54d9 d73e 46ef 92be 30f4 813e
00000010: 6a09 1d3f 1c50 1dbe dfcd b63e 88b6 2c3f
00000020: d60d ff3e 5a02 093e

conv_block_2.2.weight f4 [10, 10, 3, 3]
-0.0044252756 -0.0733961 -0.020267209 -0.27041045 0.23397969 -0.024397714 -0.69350576 0.16161421
0.29617408 0.048961986 -0.06436245 -0.37647134 0.29189506 -0.23012066 -0.20149547 0.042351715
-0.3706329 0.04645025 -0.003977576 0.025320875 -0.1516302 -0.07578064 -0.018915018 0.015920103
-0.059081517 0.06844234 -0.07803807 -0.32846862 0.0064828224 0.12714882 -0.21790242 -0.085407846
-0.056823 -0.09050349 0.04929943 -0.058376182 -0.61330104 -0.08623387 0.09770458 -0.5085007
-0.055094108 0.3892381 -0.28649566 0.1795711 0.008687485 -0.06630075 -0.22522357 -0.016467102
-0.21254413 -0.35098335 0.052113496 0.013252299 -0.044285372 -0.05251734 0.16920638 -0.19525631
-0.11096986 -0.18260747 -0.107813165 -0.18476628 -0.4487798 0.13099445 -0.09419696 0.56172127
-0.11931664 -0.06878375 -0.12874985 -0.3559209 -0.334958 -0.25222033 -0.38771677 -0.17096913
0.18674697 -0.10217906 -0.10283366 0.13787387 0.22036459 -0.30965376 0.025768932 -0.16992958
-0.021391088 0.07721657 -0.53665584 -0.20966405 0.12598573 -0.18410057 -0.21488564 0.050132044
-0.24778368 0.0930899 0.3314658 -0.2252428 0.013812401 -0.4437238 -0.30879062 0.17870747
-0.26991147 -0.17280097 0.028126083 0.26364732 -0.069008105 -0.048035245 -0.2988781 -0.08879461
0.047526415 -0.062135268 0.11523732 -0.059103996 0.019205052 -0.091460556 -0.09873853 -0.020432092
-0.49366564 0.07552414 -0.25755504 -0.42054385 -0.0006955374 0.30406487 -0.14019799 -0.3069049
0.19370325 -0.19153884 0.08566661 -0.24463701 -0.2049121 0.30513433 -0.45120424 -0.25843742
-0.08134542 0.38952488 -0.27511123 0.010898177 -0.15332021 0.25046802 -0.1290036 0.56934905
-0.111434594 0.1676064 -0.04460366 0.1703801 -0.34198442 -0.4325262 -0.38612518 -0.046341967
0.49539274 0.18171547 -0.30682838 0.19154747 -0.19917502 -0.1741256 -0.25668195 -0.16827205
-0.23154843 0.11046015 -0.175009 -0.26297486 0.10785731 0.027992595 -0.042524427 0.35529488
-0.18560375 -0.34680295 -0.5489098 -0.0070112706 0.062229153 -0.13408752 0.07206447 -0.27632144
0.32739097 0.1266243 0.039943177 0.029153308 0.22733226 -0.5360751 -0.25867453 -0.12461874
-0.19331902 -0.051321443 -0.54579407 -0.33375263 -0.21331073 0.13189967 -0.521364 0.33081752
0.07514734 -0.25556552 0.5320245 -0.11539276 -0.36720437 -0.39959204 -0.041748747 -0.45140648
0.25961098 0.11830043 -0.49306622 0.6101309 0.20607975 -0.57314175 -0.23487654 -0.019367335
-0.052839987 -0.13944271 -0.06120063 0.012173186 0.15920769 0.13541923 -0.022336183 0.045844752
-0.0057400176 0.07015795 -0.042259373 -0.18392302 0.14674869 0.02439888 0.14601786 -0.15097393
-0.3134103 0.41565993 0.0038918818 -0.0032287457 -0.024244925 0.42168725 0.14502473 0.098216124
-0.31595328 -0.021144852 -0.11104784 -0.110395364 0.055456683 -0.1940386 -0.24303721 0.13027784
0.019583603 -0.0034527015 -0.09906537 -0.21170534 -0.031399705 -0.024410004 0.049472637 -0.01563583
0.36123717 -0.14061543 0.18007034 0.093179315 -0.22273098 -0.4134972 -0.08684559 -0.32230031
0.18803993 0.023354042 -0.21197717 0.0919019 0.45467037 -0.2588863 0.15907079 0.0070661358
00000000: e701 91bb b250 96bd 6b07 a6bc 3d73 8abe
00000010: 5f98 6f3e b7dd c7bc 9889 31bf 327e 253e
00000020: 21a4 973e 5d8c 483d 76d0 83bd dac0 c0be
00000030: 4573 953e c0a4 6bbe d454 4ebe fe78 2d3d
00000040: 98c3 bdbe 9e42 3e3d 5356 82bb b96d cf3c
00000050: f244 1bbe e132 9bbd abf3 9abc e06a 823c
00000060: 76ff 71bd 7f2b 8c3d 6cd2 9fbd 0a2d a8be
00000070: db6d d43b 4d33 023e d021 5fbe 4fea aebd
00000080: 3cbf 68bd e559 b9bd 33ee 493d dd1b 6fbd
00000090: 4c01 1dbf 629b b0bd 5719 c83d 1a2d 02bf
000000a0: 5caa 61bd 374a c73e 8faf 92be 7de1 373e
000000b0: f455 0e3c b0c8 87bd 02a1 66be 04e6 86bc
000000c0: 2ba5 59be 17b4 b3be f674 553d 2c20 593c
000000d0: 9464 35bd 6c1c 57bd 7044 2d3e 45f1 47be
000000e0: 2a44 e3bd 74fd 3abe 26cd dcbd 5f33 3dbe
000000f0: 77c6 e5be 6923 063e 56ea c0bd f7cc 0f3f
00000100: 485c f4bd 7fde 8cbd 00d7 03be 443b b6be
00000110: 9d7f abbe 0623 81be d082 c6be 8812 2fbe
00000120: 993a 3f3e 4143 d1bd 749a d2bd cf2e 0d3e
00000130: 41a7 613e f08a 9ebe 5e19 d33c 0502 2ebe
00000140: 5d3c afbc b923 9e3d 4762 09bf 2cb2 56be
00000150: 6702 013e dc84 3cbe fb0a 5cbe 4257 4d3d
00000160: 01bb 7dbe eba5 be3d e3b5 a93e 0ca6 66be
00000170: 694d 623c c42f e3be ce19 9ebe 17ff 363e
00000180: d631 8abe bdf2 30be ac68 e63c c8fc 863e
00000190: 1f54 8dbd 9bc0 44bd 8d06 99be f3d9 b5bd
000001a0: 0fab 423d 8d81 7ebd 8b01 ec3d 0817 72bd
000001b0: ea53 9d3c ac4f bbbd 6d37 cabd 3461 a7bc
000001c0: bec1 fcbe 66ac 9a3d 41de 83be 8651 d7be
000001d0: ba54 36ba 64ae 9b3e 1090 0fbe a422 9dbe
000001e0: 255a 463e c222 44be fa71 af3d 2082 7abe
000001f0: 7ad4 51be 913a 9c3e 3e04 e7be e951 84be
00000200: 6d98 a6bd ce6f c73e 61db 8cbe 448e 323c
00000210: f9ff 1cbe 583d 803e 8519 04be dcc0 113f
00000220: d237 e4bd 03a1 2b3e 54b2 36bd 1f78 2e3e
00000230: 9518 afbe 1374 ddbe 33b2 c5be 13d1 3dbd
00000240: 1ea4 fd3e 9f13 3a3e 9c18 9dbe 0525 443e
00000250: 89f4 4bbe fb4d 32be d16b 83be 824f 2cbe
00000260: 081b 6dbe ee38 e23d 8f35 33be a4a4 86be
00000270: 4be4 dc3d ba50 e53c 182e 2ebd 36e9 b53e
00000280: e90e 3ebe 2890 b1be 5a85 0cbf cdbe e5bb
00000290: ffe3 7e3d 3d4e 09be 8996 933d 017a 8dbe
000002a0: ca9f a73e cda9 013e 759b 233d ebd2 ee3c
000002b0: cac9 683e 383c 09bf fd70 84be 1c38 ffbd
000002c0: 6cf5 45be 6f36 52bd 29b9 0bbf a0e1 aabe
000002d0: 216e 5abe b510 073e 1c78 05bf ea60 a93e
000002e0: d9e6 993d 7cd9 82be c232 083f 0a53 ecbd
000002f0: 3602 bcbe 5497 ccbe bc00 2bbd c01e e7be
00000300: bbeb 843e 7f47 f23d 2d73 fcbe 8a31 1c3f
00000310: 9206 533e 6bb9 12bf 7a83 70be 3fa8 9ebc
00000320: be6e 58bd 12ca 0ebe 83ad 7abd 0b72 473c
00000330: 5707 233e 57ab 0a3e 5ffa b6bc b5c7 3b3d
00000340: c216 bcbb f9ae 8f3d 2a18 2dbd 5156 3cbe
00000350: 4a45 163e 29e0 c73c b585 153e e998 1abe
00000360: 5177 a0be 61d1 d43e f10e 7f3b 5d99 53bb
00000370: 4b9d c6bc 64e7 d73e 5d81 143e 8925 c93d
00000380: a1c4 a1be f837 adbc 0d6d e3bd f716 e2bd
00000390: 8c26 633d 0eb2 46be bfde 78be 8e67 053e
000003a0: cb6d a03c b846 62bb c9e2 cabd 49c9 58be
000003b0: fa9c 00bd 7df7 c7bc d2a3 4a3d b616 80bc
000003c0: 14f4 b83e 7efd 0fbe 5c64 383e ccd4 be3d
000003d0: 9713 64be e8b5 d3be 1adc b1bd 8c04 a5be
000003e0: 8a8d 403e fa50 bf3c 8b10 59be 1037 bc3d
000003f0: 8eca e83e bf8c 84be 74e3 223e 0b8b e73b

conv_block_2.2.bias f4 [10]
0.6110957 0.25560442 -0.38108793 -0.14105625 -0.067354985 -0.16132866 -0.067857705 -0.15673406
-0.1601328 -0.31823847
00000000: c570 1c3f 95de 823e f51d c3be 0d71 10be
00000010: 69f1 89bd 5733 25be fbf8 8abd e57e 20be
00000020: daf9 23be 27f0 a2be

classifier.1.weight f4 [10, 490]
-0.0077525442 0.33664584 0.17291315 -0.029976595 0.46151772 0.21005398 0.11559722 0.29033732
0.14919 0.13241008 -0.036667056 0.10740873 -0.03469309 0.09709821 0.2712461 0.45357975
0.02464647 -0.34844595 0.23508775 0.04089465 -0.25153404 0.033380944 0.14950483 -0.05881077
-0.25736865 0.048164073 -0.09670151 -0.29092634 -0.10622648 -0.070581324 0.10763288 0.027298596
-0.10442276 -0.15695752 -0.15397593 -0.030849187 -0.13935587 0.16277859 -0.28054217 -0.09111217
-0.058712702 -0.0694252 -0.20993319 0.23500745 0.31195968 0.061722036 -0.09523317 -0.12383482
-0.0061143227 -0.12013533 -0.13972183 -0.31780183 -0.14286458 0.19774622 0.3529831 -0.18056914
0.0148189925 0.26266673 -0.005268917 -0.16578369 0.1427635 0.13564858 -0.073409125 -0.034634218
-0.30892256 -0.37418446 -0.156723 0.35415605 0.37247887 0.06478491 0.03516674 0.12280075
-0.044565044 -0.06726458 0.112981446 -0.23478377 0.23121236 0.04244635 0.26682302 -0.019320212
-0.17952324 -0.13410597 -0.089045614 0.34416664 0.028971082 0.24304561 -0.21105056 -0.15935802
-0.14738742 -0.15139253 0.45299724 -0.081625305 0.3533006 -0.14210267 0.08345659 0.095334895
-0.23300403 0.23950984 -0.043963864 -0.0038725734 0.11604184 -0.27340284 0.21098791 0.095777705
-0.07713502 -0.047971975 0.15789966 0.15510562 0.35051697 -0.05651355 0.1523705 0.13038242
-0.17471084 0.17732699 0.05031821 0.094444685 0.026415981 0.09086875 -0.23807728 -0.21771118
-0.016442712 0.019059418 -0.1025367 0.1314597 -0.012305089 -0.16492131 -0.09969772 0.096450455
0.04997249 -0.022256723 -0.13124469 -0.04253595 -0.1520931 -0.1925579 -0.048296887 -0.19598995
0.06323202 0.15864295 0.15841177 -0.28308603 -0.07167254 0.011814783 -0.34927365 -0.31057626
-0.07006582 0.07884468 -0.010754395 0.04388423 -0.17691635 0.012653561 -0.07294165 0.121489204
0.028110355 0.059887357 -0.30219567 -0.28675488 -0.041642774 0.15654916 0.18715404 -0.07095581
-0.047896415 0.118821934 -0.08406136 0.0062952135 0.23232771 0.105089344 0.20442237 0.28990647
0.41809276 -0.06056561 -0.08009364 -0.043614168 -0.18260449 0.26959676 0.19364174 -0.016135281
-0.18028212 0.13702533 -0.032797575 -0.01910168 -0.0019094241 -0.06529037 0.09885101 -0.14458047
0.12603949 -0.15333457 0.13936102 -0.112988465 0.021410752 0.03572627 0.031051455 0.10140718
-0.079418115 0.21869698 0.035039034 0.10475004 0.014007968 -0.10886383 -0.19230571 0.36014548
-0.054096527 0.2519039 0.20416121 0.1100489 0.44856882 0.3041737 0.23698364 -0.18716693
-0.12701955 0.18277363 0.054559264 0.5185274 0.33486447 0.23452005 -0.09005778 0.05006535
-0.035741456 -0.1350315 0.2519424 -0.06277787 0.1502663 -0.31216562 -0.185015 0.008347067
-0.26873788 -0.0523228 -0.097319126 0.15074289 -0.16680677 -0.42594054 -0.039402723 -0.09462586
-0.01855789 0.14403784 0.011191038 -0.031853482 -0.05686593 -0.12306725 -0.05134569 0.1033321
0.051675208 0.17841442 0.21240337 0.08265921 -0.23160116 0.07253026 -0.044682518 0.10493789
-0.0050037866 0.031820666 -0.030743076 0.12538444 -0.0020261474 0.15238555 -0.014864993 -0.12556186
00000000: 0e09 febb d85c ac3e 2510 313e 7a91 f5bc
00000010: 0d4c ec3e 6418 573e 3cbe ec3d 18a7 943e
00000020: 43c5 183e 8296 073e 3230 16bd 1cf9 db3d
00000030: 571a 0ebd 6ddb c63d c5e0 8a3e 9b3b e83e
00000040: 65e7 c93c 8267 b2be d8ba 703e 2681 273d
00000050: 12c9 80be 75ba 083d cb17 193e 90e3 70bd
00000060: d3c5 83be b147 453d 710b c6bd 4cf4 94be
00000070: 458d d9bd f18c 90bd a16e dc3d 4ea1 df3c
00000080: 9adb d5bd 79b9 20be deab 1dbe 6fb7 fcbc
00000090: 4eb3 0ebe 6eaf 263e 39a3 8fbe 0499 babd
000000a0: bb7c 70bd cd2e 8ebd baf8 56be cba5 703e
000000b0: 2eb9 9f3e 3fd0 7c3d 9c09 c3bd 1c9d fdbd
000000c0: a85a c8bb 8309 f6bd 3d13 0fbe ecb6 a2be
000000d0: 184b 12be fc7d 4a3e 33ba b43e 1ee7 38be
000000e0: 5ccb 723c 417c 863e e1a6 acbb 33c3 29be
000000f0: 9830 123e 76e7 0a3e 8657 96bd 9cdc 0dbd
00000100: 192b 9ebe 1b95 bfbe fe7b 20be f153 b53e
00000110: 8db5 be3e f3ad 843d 000b 103d f67e fb3d
00000120: d689 36bd 03c2 89bd d162 e73d 286b 70be
00000130: efc2 6c3e 39dc 2d3d 079d 883e 6c45 9ebc
00000140: f1d4 37be 1353 09be 8c5d b6bd 9c36 b03e
00000150: c354 ed3c f3e0 783e a31d 58be c02e 23be
00000160: baec 16be a506 1bbe 41ef e73e 2b2b a7bd
00000170: d1e3 b43e 5d83 11be 4aeb aa3d f13e c33d
00000180: 9c98 6ebe 1142 753e 7413 34bd 00cb 7dbb
00000190: 58a7 ed3d 75fb 8bbe 370d 583e 1a27 c43d
000001a0: f7f8 9dbd 437e 44bd 73b0 213e 02d4 1e3e
000001b0: f676 b33e c17a 67bd 0307 1c3e f882 053e
000001c0: 66e7 32be 3595 353e 781a 4e3d 376c c13d
000001d0: 5466 d83c 6519 ba3d 88ca 73be aeef 5ebe
000001e0: deb2 86bc 7f22 9c3c c3fe d1bd 5f9d 063e
000001f0: 499b 49bc 22e1 28be 512e ccbd d187 c53d
00000200: f4af 4c3d bb53 b6bc 0265 06be 2d3a 2ebd
00000210: 4bbe 1bbe e62d 45be f5d2 45bd 97b1 48be
00000220: ca7f 813d 4c73 223e b236 223e a7f0 90be
00000230: 0dc9 92bd cb92 413c ffd3 b2be da03 9fbe
00000240: ab7e 8fbd 5279 a13d 3433 30bc f3bf 333d
00000250: 8f29 35be e250 4f3c 6f62 95bd 55cf f83d
00000260: b047 e63c 724c 753d 64b9 9abe 89d1 92be
00000270: 9d91 2abd 6c4e 203e 4fa5 3f3e 4851 91bd
00000280: 082f 44bd ea58 f33d 5d28 acbd 1448 ce3b
00000290: 51e7 6d3e 1539 d73d 1954 513e 9f6e 943e
000002a0: 4110 d63e a513 78bd 2208 a4bd c5a4 32bd
000002b0: acfc 3abe 9608 8a3e 054a 463e 232e 84bc
000002c0: e09b 38be 5e50 0c3e c056 06bd 207b 9cbc
000002d0: a445 faba f5b6 85bd 6672 ca3d e70c 14be
000002e0: 7f10 013e bd03 1dbe a8b4 0e3e 7f66 e7bd
000002f0: 9a65 af3c b655 123d 9f5f fe3c 91ae cf3d
00000300: f7a5 a2bd 1af2 5f3e 1785 0f3d 3087 d63d
00000310: ad81 653c 00f4 debd caeb 44be fd64 b83e
00000320: 5294 5dbd 8cf9 803e a30f 513e 5161 e13d
00000330: d0aa e53e a8bc 9b3e d7ab 723e b0a8 3fbe
00000340: 6a11 02be 0329 3b3e 8979 5f3d 36be 043f
00000350: 5b73 ab3e 0626 703e 3770 b8bd 5311 4d3d
00000360: a265 12bd b345 0abe 98fe 803e af91 80bd
00000370: 69df 193e 2cd4 9fbe 9274 3dbe 23c2 083c
00000380: 0398 89be 6f50 56bd 404f c7bd 585c 1a3e
00000390: 65cf 2abe e114 dabe c064 21bd 34cb c1bd
000003a0: b706 98bc a87e 133e 9e5a 373c cc78 02bd
000003b0: 40ec 68bd af0a fcbd dc4f 52bd c89f d33d
000003c0: 62a9 533d 45b2 363e 4580 593e 3b49 a93d
000003d0: db28 6dbe bf8a 943d 0405 37bd ade9 d63d
000003e0: cef6 a3bb 6356 023d e7d8 fbbc c764 003e
000003f0: 1dc9 04bb f50a 1c3e 4d8c 73bc 4a93 00be

classifier.1.bias f4 [10]
0.14771377 -0.22716612 0.38224393 0.07232792 -0.38789034 -0.104318246 0.050751608 0.24814802
-0.019594783 -0.25702825
00000000: 4742 173e 3c9e 68be 7ab5 c33e a920 943d
00000010: 9099 c6be cea4 d5bd ebe0 4f3d 841a 7e3e
00000020: 3d85 a0bc 3599 83be
